…
t(torch.load(model_save_path))\nnew_model.to(device)\nnew_model.eval()  # Set the model to evaluation mode if needed\n","metadata":{"execution":{"iopub.status.busy":"2024-06-01T16:11:14.664504Z","iopub.execute_input":"2024-06-01T16:11:14.664856Z","iopub.status.idle":"2024-06-01T16:11:16.365091Z","shell.execute_reply.started":"2024-06-01T16:11:14.664828Z","shell.execute_reply":"2024-06-01T16:11:16.364187Z"},"trusted":true},"execution_count":39,"outputs":[{"execution_count":39,"output_type":"execute_result","data":{"text/plain":"NewsDataModel(\n  (model): T5ForConditionalGeneration(\n    (shared): Embedding(32128, 768)\n    (encoder): T5Stack(\n      (embed_tokens): Embedding(32128, 768)\n      (block): ModuleList(\n        (0): T5Block(\n          (layer): ModuleList(\n            (0): T5LayerSelfAttention(\n              (SelfAttention): T5Attention(\n                (q): Linear(in_features=768, out_features=768, bias=False)\n                (k): Linear(in_features=768, out_features=768, bias=False)\n                (v): Linear(in_features=768, out_features=768, bias=False)\n                (o): Linear(in_features=768, out_features=768, bias=False)\n                (relative_attention_bias): Embedding(32, 12)\n              )\n              (layer_norm): T5LayerNorm()\n              (dropout): Dropout(p=0.1, inplace=False)\n            )\n            (1): T5LayerFF(\n              (DenseReluDense): T5DenseActDense(\n                (wi): Linear(in_features=768, out_features=3072, bias=False)\n                (wo): Linear(in_features=3072, out_features=768, bias=False)\n                (dropout): Dropout(p=0.1, inplace=False)\n                (act): ReLU()\n              )\n              (layer_norm): T5LayerNorm()\n              (dropout): Dropout(p=0.1, inplace=False)\n            )\n          )\n        )\n        (1-11): 11 x T5Block(\n          (layer): ModuleList(\n            (0): T5LayerSelfAttention(\n              (SelfAttention): T5Attention(\n                (q): Linear(in_features=768, out_features=768, bias=False)\n                (k): Linear(in_features=768, out_features=768, bias=False)\n                (v): Linear(in_features=768, out_features=768, bias=False)\n                (o): Linear(in_features=768, out_features=768, bias=False)\n              )\n              (layer_norm): T5LayerNorm()\n              (dropout): Dropout(p=0.1, inplace=False)\n            )\n            (1): T5LayerFF(\n              (DenseReluDense): T5DenseActDense(\n                (wi): Linear(in_features=768, out_features=3072, bias=False)\n                (wo): Linear(in_features=3072, out_features=768, bias=False)\n                (dropout): Dropout(p=0.1, inplace=False)\n                (act): ReLU()\n              )\n              (layer_norm): T5LayerNorm()\n              (dropout): Dropout(p=0.1, inplace=False)\n            )\n          )\n        )\n      )\n      (final_layer_norm): T5LayerNorm()\n      (dropout): Dropout(p=0.1, inplace=False)\n    )\n    (decoder): T5Stack(\n      (embed_tokens): Embedding(32128, 768)\n      (block): ModuleList(\n        (0): T5Block(\n          (layer): ModuleList(\n            (0): T5LayerSelfAttention(\n              (SelfAttention): T5Attention(\n                (q): Linear(in_features=768, out_features=768, bias=False)\n                (k): Linear(in_features=768, out_features=768, bias=False)\n                (v): Linear(in_features=768, out_features=768, bias=False)\n                (o): Linear(in_features=768, out_features=768, bias=False)\n                (relative_attention_bias): Embedding(32, 12)\n              )\n              (layer_norm): T5LayerNorm()\n              (dropout): Dropout(p=0.1, inplace=False)\n            )\n            (1): T5LayerCrossAttention(\n              (EncDecAttention): T5Attention(\n                (q): Linear(in_features=768, out_features=768, bias=False)\n                (k): Linear(in_features=768, out_features=768, bias=False)\n                (v): Linear(in_features=768, out_features=768, bias=False)\n                (o): Linear(in_features=768, out_features=768, bias=False)\n              )\n              (layer_norm): T5LayerNorm()\n              (dropout): Dropout(p=0.1, inplace=False)\n            )\n            (2): T5LayerFF(\n              (DenseReluDense): T5DenseActDense(\n                (wi): Linear(in_features=768, out_features=3072, bias=False)\n                (wo): Linear(in_features=3072, out_features=768, bias=False)\n                (dropout): Dropout(p=0.1, inplace=False)\n                (act): ReLU()\n              )\n              (layer_norm): T5LayerNorm()\n              (dropout): Dropout(p=0.1, inplace=False)\n            )\n          )\n        )\n        (1-11): 11 x T5Block(\n          (layer): ModuleList(\n            (0): T5LayerSelfAttention(\n              (SelfAttention): T5Attention(\n                (q): Linear(in_features=768, out_features=768, bias=False)\n                (k): Linear(in_features=768, out_features=768, bias=False)\n                (v): Linear(in_features=768, out_features=768, bias=False)\n                (o): Linear(in_features=768, out_features=768, bias=False)\n              )\n              (layer_norm): T5LayerNorm()\n              (dropout): Dropout(p=0.1, inplace=False)\n            )\n            (1): T5LayerCrossAttention(\n              (EncDecAttention): T5Attention(\n                (q): Linear(in_features=768, out_features=768, bias=False)\n                (k): Linear(in_features=768, out_features=768, bias=False)\n                (v): Linear(in_features=768, out_features=768, bias=False)\n                (o): Linear(in_features=768, out_features=768, bias=False)\n              )\n              (layer_norm): T5LayerNorm()\n              (dropout): Dropout(p=0.1, inplace=False)\n            )\n            (2): T5LayerFF(\n              (DenseReluDense): T5DenseActDense(\n                (wi): Linear(in_features=768, out_features=3072, bias=False)\n                (wo): Linear(in_features=3072, out_features=768, bias=False)\n                (dropout): Dropout(p=0.1, inplace=False)\n                (act): ReLU()\n              )\n              (layer_norm): T5LayerNorm()\n              (dropout): Dropout(p=0.1, inplace=False)\n            )\n          )\n        )\n      )\n      (final_layer_norm): T5LayerNorm()\n      (dropout): Dropout(p=0.1, inplace=False)\n    )\n    (lm_head): Linear(in_features=768, out_features=32128, bias=False)\n  )\n)"},"metadata":{}}]}]}